temp_data/test.onnx (onnx, 380140 bytes, 8 tensors)

conv1.weight f4 [32, 3, 3, 3]
0.11637372 -0.09023668 0.049536753 -0.038818117 -0.1756464 0.097957954 -0.07709139 0.09832533
-0.14248218 0.13423917 -0.059383504 -0.11883521 -0.052308425 0.07236932 -0.14319676 0.16110608
-0.1922645 0.022921123 0.12670434 -0.07599413 0.09203646 -0.17399997 -0.08015626 0.07113867
0.11672153 0.18608403 -0.0091294525 -0.070536196 -0.07725263 -0.04568289 0.04102354 -0.13129954
0.073731996 0.07152446 -0.12678185 0.16690896 0.10089291 0.03814395 0.03731701 -0.034393374
-0.17173393 0.10203004 0.0022655067 -0.12849316 0.11346343 0.009932462 -0.14226416 0.12384046
0.0052699926 0.103460945 0.0066739186 0.10186592 -0.025475994 0.06537178 -0.11074434 0.023186926
0.017556243 -0.0069075814 -0.08035154 -0.0025715048 -0.17939332 -0.11344656 -0.05735689 0.16354704
-0.1846297 -0.16517006 -0.12787487 -0.12143297 0.06049419 -0.13567562 0.16869673 0.14722583
0.07361199 0.10797165 0.1114562 -0.057478137 -0.1395782 0.18380742 -0.17704059 0.1905738
-0.09592928 -0.053767618 -0.117409244 0.17912638 -0.09781223 -0.1875197 0.08907162 0.036321245
0.10813867 -0.030452125 -0.08296576 -0.100883245 -0.00909029 -0.10270538 0.13136443 0.1566971
-0.1657881 -0.020782255 0.15540014 -0.17022984 -0.11610004 0.14036024 0.07455446 0.0037185967
-0.05097351 -0.15746354 0.045247085 -0.14368892 -0.08170644 -0.015337147 0.042028945 -0.03873688
0.18146333 0.058657944 0.09388512 0.14120197 0.15862891 -0.16324192 -0.03370046 -0.17246431
-0.05945428 0.019190297 0.057944387 0.057535514 0.067246266 -0.1475642 -0.008777777 -0.18405207
0.12609692 -0.17174448 0.05713504 0.09327658 0.17371255 -0.05487089 -0.17402926 0.015466654
0.08407498 0.12859586 0.05080624 -0.12044766 -0.075116694 -0.053674635 0.015635826 -0.10114031
-0.008352688 0.047269523 -0.11632212 0.086887255 0.1789513 -0.19016713 -0.052766915 0.017445983
0.046844047 0.17307018 -0.17787987 0.15027653 -0.041700784 -0.015878918 0.075378805 0.028244156
0.06283689 0.18868384 0.06832256 -0.0012025653 0.078954495 0.11812941 0.105295695 -0.17391643
-0.058279634 0.05165238 0.057548683 0.01487145 -0.10646312 -0.123745315 -0.0012921302 0.09435324
-0.06894162 0.02335892 0.14697976 0.04115291 -0.04747926 0.050073016 -0.043365948 -0.022722652
-0.18621175 -0.13932364 -0.16387518 0.08120466 0.13459243 -0.1475128 -0.075219244 0.14417948
0.061680164 0.067411974 -0.10915571 -0.07568749 -0.086033314 0.18527219 0.11389942 0.07388876
-0.12251098 0.16710351 -0.024522739 -0.022860946 -0.022770004 -0.04692744 0.1715946 -0.059314404
-0.10702831 -0.00932845 -0.08988238 0.15768132 -0.062672906 0.044973023 -0.11402867 -0.019758062
0.045467306 0.08529459 0.102024585 -0.11774286 -0.032464262 -0.15608436 0.10886547 -0.17543961
0.09478402 0.07450502 -0.15096723 -0.09963796 0.07820657 -0.08747824 -0.13331121 -0.1720577
0.0035230406 -0.1254833 -0.14913489 0.10103313 -0.00050866645 0.033184405 -0.1312538 0.15870497
-0.13234362 -0.13817099 0.18707407 -0.041311897 -0.187965 0.04595287 -0.19152595 0.044306174
-0.09563934 -0.095810995 -0.15505496 0.16680922 0.082753666 -0.08060094 0.01956925 -0.1760021
00000000: 5855 ee3d 02ce b8bd 0de7 4a3d bfff 1ebd
00000010: a6dc 33be 2e9e c83d 17e2 9dbd ca5e c93d
00000020: d9e6 11be fe75 093e 1e3c 73bd e05f f3bd
00000030: 5c41 56bd 5e36 943d 2ca2 12be fef8 243e
00000040: fce0 44be 14c5 bb3c c8be 013e cfa2 9bbd
00000050: 9d7d bc3d 0c2d 32be f728 a4bd 27b1 913d
00000060: b30b ef3d d08c 3e3e b393 15bc 4875 90bd
00000070: a036 9ebd fb1d 3bbd 4d08 283d 6373 06be
00000080: cd00 973d 6b7b 923d 1ad3 01be 2fea 2a3e
00000090: f1a0 ce3d d53c 1c3d b9d9 183d 11e0 0cbd
000000a0: 05db 2fbe 20f5 d03d e578 143b b693 03be
000000b0: 845f e83d c4bb 223c b2ad 11be 11a0 fd3d
000000c0: e7af ac3b 55e3 d33d e3b0 da3b 149f d03d
000000d0: 08b3 d0bc a4e1 853d eecd e2bd 82f2 bd3c
000000e0: 1cd2 8f3c fe58 e2bb 598f a4bd b186 28bb
000000f0: e2b2 37be ac56 e8bd 0fef 6abd e078 273e
00000100: 910f 3dbe 5722 29be a1f1 02be d9b1 f8bd
00000110: c1c8 773d 8dee 0abe d6be 2c3e 5ec2 163e
00000120: e2c1 963d 3e20 dd3d 2643 e43d 326e 6bbd
00000130: 96ed 0ebe 0338 3c3e 214a 35be c725 433e
00000140: 9276 c4bd 6f3b 5cbd 4274 f0bd e86c 373e
00000150: c751 c8bd 2a05 40be 2e6b b63d 96c5 143d
00000160: cf77 dd3d bc76 f9bc f4e9 a9bd e09b cebd
00000170: 71ef 14bc 3357 d2bd 6684 063e 3475 203e
00000180: 5bc4 29be 8c3f aabc 3721 1f3e bb50 2ebe
00000190: dcc5 edbd 98ba 0f3e 02b0 983d b3b3 733b
000001a0: 99c9 50bd 1f3e 21be 0255 393d 3023 13be
000001b0: b555 a7bd a848 7bbc 8b26 2c3d 90aa 1ebd
000001c0: 86d1 393e 5043 703d d746 c03d 4097 103e
000001d0: 9e6f 223e e428 27be 7e09 0abd 7c9a 30be
000001e0: 5586 73bd f834 9d3c 1857 6d3d 5caa 6b3d
000001f0: 69b8 893d 121b 17be aad0 0fbc 2578 3cbe
00000200: 8d1f 013e c9dd 2fbe 6f06 6a3d cb07 bf3d
00000210: b4e1 313e 4cc0 60bd ba34 32be d967 7d3c
00000220: 812f ac3d a2ae 033e 341a 503d 43ad f6bd
00000230: c8d6 99bd efd9 5bbd b416 803c a722 cfbd
00000240: b6d9 08bc b09d 413d 4b3a eebd f2f1 b13d
00000250: 023f 373e 2cbb 42be 1f22 58bd e1ea 8e3c
00000260: 8bdf 3f3d 4f39 313e 2426 36be 17e2 193e
00000270: 71ce 2abd 8114 82bc 3460 9a3d 4a60 e73c
00000280: a1b0 803d 5636 413e b3ec 8b3d 659f 9dba
00000290: e5b2 a13d d5ed f13d 45a5 d73d 2617 32be
000002a0: a0b6 6ebd 7291 533d 2bb8 6b3d 62a7 733c
000002b0: 5609 dabd 2f6e fdbd b25c a9ba 463c c13d
000002c0: 4431 8dbd 355b bf3c dd81 163e f48f 283d
000002d0: 9d79 42bd 5d19 4d3d 7ea0 31bd db24 babc
000002e0: 4bae 3ebe dbaa 0ebe e5ce 27be a14e a63d
000002f0: 99d2 093e 980d 17be 8c0c 9abd c9a3 133e
00000300: 57a4 7c3d 4a0f 8a3d 078d dfbd 0b02 9bbd
00000310: 3c32 b0bd feb7 3d3e 1944 e93d fd52 973d
00000320: 09e7 fabd 2f1d 2b3e e9e3 c8bc e146 bbbc
00000330: 2988 babc fd36 40bd 7fb6 2f3e a9f3 72bd
00000340: a931 dbbd 5bd6 18bc 4114 b8bd 3677 213e
00000350: a75a 80bd a235 383d dd87 e9bd a9db a1bc
00000360: ed3b 3a3d eeae ae3d 44f2 d03d 2b23 f1bd
00000370: 3ff9 04bd 94d4 1fbe dcf4 de3d 71a6 33be
00000380: 201e c23d 1796 983d 2797 1abe fd0e ccbd
00000390: c42a a03d cb27 b3bd bc82 08be e52f 30be
000003a0: d0e2 663b b27e 00be d1b6 18be 75ea ce3d
000003b0: 0758 05ba 5fec 073d 6567 06be 8e83 223e
000003c0: 1685 07be b27c 0dbe 5890 3f3e aa36 29bd
000003d0: e679 40be 1439 3c3d 611f 44be 647a 353d
000003e0: 8fde c3bd 8e38 c4bd bac6 1ebe 09d0 2a3e
000003f0: c17a a93d 1b12 a5bd b14f a03c e539 34be

conv1.bias f4 [32]
0.0012524409 0.1687335 -0.1682588 0.08560488 -0.12696534 0.03745689 -0.012612918 -0.14305569
-0.0065732496 0.15687162 0.07980821 -0.14637618 0.1590312 0.0051493873 -0.0436265 0.032645524
-0.083218835 0.102167375 -0.10234065 -0.0026185815 -0.14184688 0.092040546 -0.06803538 -0.17587
-0.1474324 -0.10106272 -0.1267006 0.0906207 0.124207504 0.08741125 0.16305278 0.0037234374
00000000: f128 a43a 7ac8 2c3e 094c 2cbe 9c51 af3d
00000010: 3403 02be 656c 193d 6aa6 4ebc 317d 12be
00000020: 6a64 d7bb f4a2 203e 7d72 a33d a3e3 15be
00000030: 13d9 223e 31bc a83b b3b1 32bd 50b7 053d
00000040: a36e aabd 213d d13d fa97 d1bd 829c 2bbb
00000050: 4f40 11be c17f bc3d 2256 8bbd 4417 34be
00000060: 85f8 16be f9f9 cebd cdbd 01be 5897 b93d
00000070: 8160 fe3d ab04 b33d 4ff7 263e ea04 743b

conv2.weight f4 [64, 32, 3, 3]
-0.02258658 -0.043846857 -0.03251975 0.025276111 -0.058675963 0.056250475 -0.0035595472 0.019554185
-0.02015699 0.045139674 -0.013173637 0.02802141 -0.0030693233 0.040083457 0.047849577 0.05080502
-0.007869512 0.041188437 0.037579276 0.03376861 -0.027941212 0.019210238 0.02860588 0.019810382
0.0049868855 0.04782053 0.03623455 0.010083106 0.03748098 0.025655897 -0.026630921 -0.0070792236
-0.055678304 -0.003355999 0.0018414028 0.015559359 0.054160807 -0.04415922 -0.03252258 -0.04809404
0.0386443 -0.004492208 0.04767922 -0.03228993 -0.025711523 0.008270757 0.055046216 0.056036863
-0.028755305 0.0029164355 0.024125053 0.017818494 0.017620102 0.05433434 0.008688517 -0.054410473
0.016876778 -0.0039840364 -0.05342579 -0.043075338 0.04577725 0.012785921 -0.051995344 -0.011388711
-0.052679893 0.03961477 0.052671604 0.0321366 0.035441637 0.040112127 -0.013116015 0.049814288
0.041905746 -0.019653076 0.024013687 -0.04386162 0.05301364 -0.021389434 0.05655065 0.038503367
-0.035751056 0.030203585 -0.058184497 0.015924962 0.024604367 -0.005566615 -0.02363872 -0.01875933
-0.02443153 -0.04053806 -0.043214254 -0.012436003 0.032567628 -0.040647894 0.011114039 -0.0037578482
-0.036350653 -0.030018026 0.021864703 0.022998475 0.014256418 -0.021024112 -0.002685506 0.015689362
-0.039944768 -0.03124721 -0.05631048 -0.05592221 0.044272806 0.052201696 -0.0018791594 -0.035946015
-0.022100303 0.0021511118 0.021772211 -0.014605337 -0.023064105 -0.015909895 0.028877413 0.034146294
-0.029883977 0.052256852 -0.021087185 -0.030030487 0.026153622 -0.043442126 -0.022042908 0.050403092
0.053642206 0.050783083 -0.03519108 0.035594586 -0.034984145 0.04435567 -0.008435305 -0.05384949
0.017758995 0.040268105 -0.01817167 0.044364348 0.034945134 0.031600352 0.00791522 -0.04096259
0.016106242 0.054959055 0.0006438985 -0.004518339 0.00013531948 0.011867253 0.026500737 -0.032302193
-0.04057634 -0.035977844 0.039295897 0.052564412 -0.018692605 0.027085736 0.052128367 -0.048861187
0.017852731 0.012041214 0.035814475 -0.021998942 -0.056223117 -0.01810786 0.018069098 0.045522783
-0.0069150757 -0.0499348 -0.045023356 0.047371406 0.0366238 0.007556052 0.001899994 0.03751449
-0.031794332 0.019429851 -0.032098718 -0.028656619 -0.003592759 0.03473148 0.018092772 -0.005404462
0.048522264 0.018149972 0.0059558977 -0.03949808 -0.03619731 0.017735282 -0.025185404 0.054533217
0.052744668 0.0053928858 0.013857772 -0.008587941 0.047465745 0.058619987 0.04655017 -0.049296584
-0.0026645237 -0.015903115 -0.0054875477 -0.050388306 -0.007420367 -0.043972705 0.009492988 -0.055917952
-0.050604112 0.034783497 -0.044012185 -0.007088468 -0.04298718 0.053843506 -0.0063479757 0.021394506
0.046251938 -0.0026415468 -0.041582946 0.051506694 -0.0056503047 -0.057379555 -0.0052386425 0.031187143
-0.030071987 -0.04944437 -0.02981371 -0.021555817 0.0014995427 -0.039202124 -0.04736555 0.054186393
-0.01199127 -0.055110496 -0.016750535 0.019452864 0.03871348 -0.03862435 -0.044929806 -0.025330024
0.057525333 0.052352257 0.05273777 -0.0018463691 0.047294546 0.005375072 0.054806963 -0.013177809
-0.018824264 0.006093767 -0.043052424 0.017332485 -0.03618224 -0.018729758 -0.013910771 -0.00984464
00000000: 7e07 b9bc c398 33bd 6e33 05bd d90f cf3c
00000010: 3556 70bd e666 663d 4b47 69bb 1930 a03c
00000020: 4620 a5bc 61e4 383d 3dd6 57bc 288d e53c
00000030: b326 49bb 8d2e 243d ebfd 433d ed18 503d
00000040: 20ef 00bc 35b5 283d baec 193d f450 0a3d
00000050: f8e4 e4bc ca5e 9d3c e156 ea3c 6249 a23c
00000060: 0769 a33b 76df 433d ae6a 143d 9d33 253c
00000070: a885 193d 512c d23c 1729 dabc d5f8 e7bb
00000080: ef0e 64bd 52f0 5bbb 3a5b f13a afec 7e3c
00000090: b9d7 5d3d 4ce0 34bd 6636 05bd 42fe 44bd
000000a0: 7c49 1e3d 5f33 93bb 494b 433d 7242 04bd
000000b0: f9a0 d2bc 1282 073c 2478 613d e986 653d
000000c0: 3f90 ebbc ab21 3f3b e7a1 c53c 17f8 913c
000000d0: 0858 903c af8d 5e3d 485a 0e3c 84dd 5ebd
000000e0: 2b41 8a3c 858c 82bb 00d5 5abd c46f 30bd
000000f0: ed80 3b3d 0a7c 513c 12f9 54bd b797 3abc
00000100: dfc6 57bd 1943 223d 2ebe 573d aba1 033d
00000110: 402b 113d 9d4c 243d 8ee4 56bc 110a 4c3d
00000120: 5ca5 2b3d 7dff a0bc 5ab8 c43c 3ea8 33bd
00000130: d524 593d e538 afbc a8a1 673d b5b5 1d3d
00000140: b36f 12bd 826d f73c de52 6ebd 1175 823c
00000150: 198f c93c 2768 b6bb fda5 c1bc 2bad 99bc
00000160: a224 c8bc 3d0b 26bd 6e01 31bd 61c0 4bbc
00000170: a265 053d 687e 26bd a917 363c 3b46 76bb
00000180: 6ce4 14bd 5de8 f5bc 9b1d b33c 4c67 bc3c
00000190: c093 693c c23a acbc 50ff 2fbb fa86 803c
000001a0: 209d 23bd 26fa ffbc d1a5 66bd b00e 65bd
000001b0: 6757 353d 72d1 553d 204e f6ba 213c 13bd
000001c0: b20b b5bc abf9 0c3b a35b b23c 394b 6fbc
000001d0: eff0 bcbc 7855 82bc 5390 ec3c fcdc 0b3d
000001e0: 3ecf f4bc 480b 563d 08bf acbc 7f02 f6bc
000001f0: 1f40 d63c 5ff0 31bd 5493 b4bc 7973 4e3d
00000200: eeb7 5b3d ec01 503d 8624 10bd a1cb 113d
00000210: 894b 0fbd 4bae 353d 3c34 0abc 4891 5cbd
00000220: 507b 913c 2bf0 243d c1dc 94bc 64b7 353d
00000230: a122 0f3d 5f6f 013d d7ae 013c 64c8 27bd
00000240: 3df1 833c bf1c 613d 4ccb 283a 930e 94bb
00000250: 8ce4 0d39 de6e 423c 1318 d93c 4e4f 04bd
00000260: 6033 26bd 815d 13bd bcf4 203d c84d 573d
00000270: 3c21 99bc e8e2 dd3c 8e84 553d ab22 48bd
00000280: e43f 923c 8348 453c 33b2 123d 2037 b4bc
00000290: 364a 66bd ef56 94bc a505 943c 1976 3a3d
000002a0: dc97 e2bb 6f88 4cbd 696a 38bd 8508 423d
000002b0: d602 163d c298 f73b 3809 f93a cba8 193d
000002c0: c63a 02bd 5a2b 9f3c f279 03bd 49c1 eabc
000002d0: 7e74 6bbb 9942 0e3d 4b37 943c ea17 b1bb
000002e0: 48bf 463d 40af 943c b129 c33b bdc8 21bd
000002f0: a143 14bd 9549 913c 9f51 cebc 395e 5f3d
00000300: cb0a 583d ceb6 b03b b50b 633c 6fb4 0cbc
00000310: 716b 423d 831b 703d 64ab 3e3d 37eb 49bd
00000320: 4a9f 2ebb 4047 82bc e3d0 b3bb f863 4ebd
00000330: 8d26 f3bb b91c 34bd 7a88 1b3c 390a 65bd
00000340: 4246 4fbd 2479 0e3d 1f46 34bd 6146 e8bb
00000350: 5313 30bd 028b 5c3d ae02 d0bb 8843 af3c
00000360: ac72 3d3d cd1d 2dbb e152 2abd aff8 523d
00000370: 3126 b9bb d306 6bbd eba8 abbb 2e7c ff3c
00000380: 8759 f6bc 2e86 4abd e23b f4bc d395 b0bc
00000390: 4e8c c43a 6892 20bd 6102 42bd 8df2 5d3d
000003a0: 0877 44bc 8bbb 61bd 6b38 89bc 9d5b 9f3c
000003b0: 0792 1e3d 9134 1ebd 5108 38bd e980 cfbc
000003c0: af9f 6b3d 526f 563d 8f03 583d de01 f2ba
000003d0: edb7 413d 5f21 b03b 447d 603d bde7 57bc
000003e0: 5835 9abc 39ae c73b bd57 30bd dbfc 8d3c
000003f0: d433 14bd 266f 99bc 01ea 63bc 6a4b 21bc

conv2.bias f4 [64]
-0.010697566 0.007435484 -0.05572886 -0.039151303 -0.009037507 -0.03549755 0.051895633 0.0037203936
-0.025475621 0.04000927 -0.04641357 -0.036311645 -0.020024845 -0.010907485 -0.02276236 0.05566866
0.05431991 0.009882164 0.057005115 -0.03258338 0.04677011 -0.02429499 0.0028801751 -0.025702208
-0.009571304 0.044388555 0.021365931 0.020830581 -0.033722382 0.028000245 -0.052673087 0.017516034
-0.0073639466 -0.057048578 -0.056061152 0.027719513 -0.006546101 -0.032457184 0.04063079 0.03472511
-0.042864807 -0.0096008275 -0.0074165952 0.017305538 0.022235202 -0.0572756 0.020025697 -0.032567937
0.022063622 0.024124196 0.024082618 0.015283143 -0.03421312 0.029878013 0.02229975 -0.031547155
-0.053593315 -0.022333574 0.009476621 0.008453934 0.025024327 0.015626885 -0.020992573 -0.051402338
00000000: d844 2fbc 5ca5 f33b f243 64bd 1e5d 20bd
00000010: 0d12 14bc e165 11bd 8490 543d d9d1 733b
00000020: 40b2 d0bc c3e0 233d 281c 3ebd 85bb 14bd
00000030: 250b a4bc 4fb5 32bc 2178 babc d204 643d
00000040: 8e7e 5e3d cde8 213c 327e 693d 2676 05bd
00000050: 0492 3f3d 4906 c7bc 52c1 3c3b 708d d2bc
00000060: f5d0 1cbc c6d0 353d 9b07 af3c e5a4 aa3c
00000070: 7b20 0abd c560 e53c bcbf 57bd c97d 8f3c
00000080: 434d f1bb c5ab 69bd 61a0 65bd 0814 e33c
00000090: ad80 d6bb d3f1 04bd 796c 263d eb3b 0e3d
000000a0: 0293 2fbd ca4c 1dbc e906 f3bb 58c4 8d3c
000000b0: 9926 b63c d299 6abd ee0c a43c f565 05bd
000000c0: c5be b43c 1ba0 c53c e948 c53c 2666 7a3c
000000d0: 0e23 0cbd bcc2 f43c f7ad b63c 9737 01bd
000000e0: aa84 5bbd e6f4 b6bc d443 1b3c 5f82 0a3c
000000f0: d1ff cc3c f403 803c 9ef8 abbc 428b 52bd

conv3.weight f4 [128, 64, 3, 3]
-0.014428685 -0.024475303 -0.015029451 -0.007061581 0.004650305 0.021795308 -0.026576042 0.0118619455
-0.03206068 -0.03849809 -0.002759581 -0.020830374 0.0132161975 -0.041040607 -0.013689151 -0.027588993
-0.012340039 0.012840251 -0.002506887 0.021922981 0.030551031 0.029827133 -0.0071962923 0.03762918
-0.027974442 0.010265604 0.039365344 -0.03780941 0.026523894 -0.0213398 0.036740355 -0.030504704
-0.029263806 -0.038193643 -0.023817128 0.021301782 -0.009996807 0.037666377 0.032125518 0.02563095
0.024754629 0.02694146 -0.011814515 0.019155785 0.019242913 -0.030776829 0.00963448 0.0269609
0.0025460075 -0.026668962 -0.019063806 0.016070735 -0.026931554 -0.00038973492 -0.009970278 -0.036464524
-0.034430157 0.0052254796 -0.011678278 -0.027899211 -0.038954847 0.026622415 -0.0007772545 0.028146476
0.041134804 0.021497866 -0.03679105 -0.008087963 0.00225618 0.013471569 -0.0033328533 -0.02363496
-0.022120213 -0.03510975 0.031300794 0.0005475829 -0.022035679 -0.0077102883 -0.030472904 -0.03409534
-0.024812099 0.028606903 0.01829679 0.016583499 -0.002871727 0.029494986 0.029555123 0.012003055
0.0021234553 -0.02595624 0.03487651 0.029302021 -0.0026632897 -0.0013400018 0.00989684 -0.030743044
0.010956268 0.0037759892 -0.03763036 -0.016021615 0.04085433 0.024798602 0.027313184 0.013753742
0.011961475 0.0360994 0.027796358 0.04135243 -0.031715825 0.004547497 0.01962234 0.02230994
-0.041299537 0.02844821 -0.014020692 0.037251323 0.021785066 0.027806094 0.02338571 -0.0210931
0.034091167 -0.023529798 0.02940557 0.013090144 0.038435217 -0.034965724 0.035599045 0.015005743
-0.021808203 -0.041576035 0.014648214 -0.0015915881 -0.034681536 0.030020963 0.028719887 0.03714266
-0.02235715 -0.018697869 -0.025972556 0.028274994 -0.013245578 -0.021046912 0.014072205 -0.0076649687
0.032653477 0.021283727 -0.031397678 -0.010796374 -0.02141825 0.034201987 0.032848652 -0.039123937
-0.021752303 -0.03075388 0.01962176 -0.032656223 -0.015958657 -0.002270063 0.010552948 0.036080357
0.0069824806 -0.017084043 0.02432019 0.041409966 0.0004389286 -0.019684127 -0.010437126 -0.029169684
-0.012832791 0.019342106 0.022207513 0.040526785 -0.0107511785 0.03885202 -0.03981132 0.020071324
0.03975652 0.041472428 0.036239207 -0.014802079 0.034469035 0.006220326 0.029283062 -0.000977099
0.029396769 0.010815184 -0.03663872 0.03652756 -0.024526414 -0.040165648 0.018267304 -0.03632503
0.017858729 0.037928507 -0.008714393 0.01916956 0.039507728 -0.01622076 -0.0023528389 -0.0032577019
0.007200008 -0.0011363924 -0.017819887 -0.032943234 -0.014426276 0.014182429 -0.032709084 0.000921607
0.027382076 0.0059358976 0.021486258 0.006457324 0.012486955 -0.035032656 0.012807772 -0.0331392
-0.038250413 0.03632992 0.016648104 0.032513496 0.011161099 -0.0037840903 0.010668005 0.036511775
0.0097988155 -0.006942779 0.030462265 -0.0046316586 0.03961481 0.03261572 -0.014442733 0.013874377
0.040166304 -0.010376608 -0.009157335 -0.035926916 -0.019768994 0.0206743 -0.00888606 0.02423208
-0.028623229 0.021707168 -0.021674003 -0.011988605 -0.029369524 0.023023292 0.003025502 0.024530616
0.018453117 0.006759609 0.027529877 0.019780532 -0.013165906 0.025230339 0.015862834 0.0014316838
00000000: 4b66 6cbc 6e80 c8bc 163e 76bc d664 e7bb
00000010: 9661 983b 138c b23c 00b6 d9bc 9b58 423c
00000020: 0f52 03bd 2cb0 1dbd 16da 34bb 76a4 aabc
00000030: c088 583c 321a 28bd 7648 60bc 5002 e2bc
00000040: e02d 4abc eb5f 523c 964a 24bb d397 b33c
00000050: 2846 fa3c 0858 f43c e0ce ebbb 0e21 1a3d
00000060: a82a e5bc 1031 283c 8e3d 213d 0ade 1abd
00000070: a348 d93c ced0 aebc 0e7d 163d 00e5 f9bc
00000080: a6ba efbc f070 1cbd 231c c3bc 1381 ae3c
00000090: a6c9 23bc 0f48 1a3d 0c96 033d 00f8 d13c
000000a0: 38ca ca3c 56b4 dc3c ab91 41bc 98ec 9c3c
000000b0: 50a3 9d3c b01f fcbc f0d9 1d3c 1bdd dc3c
000000c0: ebda 263b de78 dabc b32b 9cbc c6a6 833c
000000d0: 909f dcbc 5655 ccb9 605a 23bc d35b 15bd
000000e0: a306 0dbd 803a ab3b 4056 3fbc e38c e4bc
000000f0: 1e8f 1fbd 4017 da3c abc0 4bba 7093 e63c
00000100: f87c 283d 4b1c b03c 36b2 16bd 6083 04bc
00000110: 6bdc 133b dbb7 5c3c 006c 5abb 1b9e c1bc
00000120: 7335 b5bc 3ecf 0fbd 4335 003d ab8b 0f3a
00000130: 2b84 b4bc 96a6 fcbb 50a2 f9bc 8ea7 0bbd
00000140: be42 cbbc 0659 ea3c 26e3 953c 1eda 873c
00000150: 9633 3cbb 789f f13c 961d f23c 76a8 443c
00000160: ab29 0b3b 2ea2 d4bc acda 0e3d cb0a f03c
00000170: 968a 2ebb 00a3 afba 5b26 223c d6d8 fbbc
00000180: eb81 333c 9676 773b 4b22 1abd c33f 83bc
00000190: df56 273d 7026 cb3c e6bf df3c 6057 613c
000001a0: 10fa 433c f7dc 133d 30b5 e33c 2a61 293d
000001b0: 74e8 01bd 2b03 953b 08bf a03c 56c3 b63c
000001c0: b429 29bd 380c e93c 0bb7 65bc d894 183d
000001d0: 9876 b23c 9bc9 e33c 6393 bf3c 70cb acbc
000001e0: 2ea3 0b3d 90c1 c0bc f3e3 f03c 0b78 563c
000001f0: 3f6e 1d3d 3838 0fbd 4ed0 113d a6da 753c
00000200: 1ea7 b2bc a24b 2abd 10ff 6f3c d69c d0ba
00000210: 3a0e 0ebd 86ee f53c f845 eb3c e722 183d
00000220: 5826 b7bc 462c 99bc 66c4 d4bc f6a0 e73c
00000230: fb03 59bc 936a acbc 1b8f 663c 6b2a fbbb
00000240: a7bf 053d 365b ae3c da9a 00bd 46e3 30bc
00000250: 5375 afbc 6217 0c3d 4f8c 063d 6c40 20bd
00000260: e331 b2bc 90ef fbbc d0bd a03c 88c2 05bd
00000270: bbbb 82bc 56c5 14bb 46e6 2c3c ffc8 133d
00000280: 4bcd e43b d6f3 8bbc 233b c73c 7f9d 293d
00000290: 0020 e639 9b40 a1bc 7b00 2bbc 43f5 eebc
000002a0: a040 52bc 5673 9e3c 88ec b53c 6aff 253d
000002b0: b625 30bc 4c23 1f3d 3211 23bd 9e6c a43c
000002c0: bcd7 223d fede 293d 906f 143d 6b84 72bc
000002d0: 672f 0d3d e0d3 cb3b 08e3 ef3c 0012 80ba
000002e0: 7ed1 f03c 2b32 313c 7c12 16bd ec9d 153d
000002f0: 9eeb c8bc bc84 24bd 50a5 953c 8ec9 14bd
00000300: 784c 923c ec5a 1b3d d0c6 0ebc 7b09 9d3c
00000310: dbd2 213d 66e1 84bc 1632 1abb 2b7f 55bb
00000320: 0bee eb3b 00f3 94ba 03fb 91bc 7cef 06bd
00000330: 305c 6cbc 6b5d 683c f6f9 05bd 0098 713a
00000340: 6050 e03c eb81 c23b f303 b03c f697 d33b
00000350: 1696 4c3c 677e 0fbd b0d7 513c f8bc 07bd
00000360: 77ac 1cbd afce 143d 9b61 883c df2c 053d
00000370: 0bdd 363c 80fe 77bb dbc8 2e3c 5f8d 153d
00000380: 368b 203c 4080 e3bb 008c f93c 2bc5 97bb
00000390: 2443 223d 1098 053d 36a1 6cbc 5b51 633c
000003a0: 6c85 243d a602 2abc a608 16bc 1a28 13bd
000003b0: 96f2 a1bc 265d a93c d696 11bc 5b82 c63c
000003c0: 437b eabc 3bd3 b13c ae8d b1bc db6b 44bc
000003d0: 5b98 f0bc 589b bc3c 8047 463b 6ef4 c83c
000003e0: fe2a 973c b67f dd3b 5686 e13c c80a a23c
000003f0: d0b5 57bc dbaf ce3c c6f2 813c 56a7 bb3a

conv3.bias f4 [128]
-0.03018181 0.039659142 0.03447894 -0.0015977274 0.025790742 -0.006591509 0.03876879 -0.03964159
-0.023489919 -0.011940956 -0.01280503 -0.037056305 -0.025196701 0.03981651 0.0028410158 -0.028651183
-0.0019827983 -0.029951334 0.024395313 0.0009904107 0.034828223 -0.0071026785 0.021598553 -0.011446471
-0.023247799 0.038389087 -0.019148951 0.002199307 -0.028980564 0.0011533748 0.00048605105 -0.034156393
0.025313353 0.039185263 0.022737782 -0.0007421027 0.0007422964 0.028932095 0.018423354 0.036984295
-0.037399795 -0.0060119433 0.01878044 0.039906703 0.02592817 -0.039668962 -0.009768869 -0.01413855
-0.024787858 0.00026780865 0.019312134 0.001951918 0.036699668 0.03236007 0.023957517 0.0063290894
-0.03597 0.019705966 0.028260505 -0.0063278726 -0.040861852 -0.027021538 0.02519999 -0.041069474
-0.011597867 -0.0297161 -0.0056057028 0.0233734 -0.028758382 0.0037150334 -0.03401978 -0.03951777
-0.037948787 -0.024839789 -0.03914024 -0.018128049 0.017818382 -0.025989365 0.016832134 0.022898113
-0.03016006 -0.034422666 -0.03336201 -0.028804353 0.0024208527 -0.015124103 0.005670657 0.030488959
0.022958955 0.037518438 -0.020502593 0.04009831 -0.036695503 -0.015362154 -0.038660355 0.00499325
0.0038399647 -0.03751813 0.037786566 -0.00576438 0.030875092 0.01715155 -0.032723945 -0.005606701
0.012489289 0.0072454414 -0.030944418 -0.025321275 0.04121779 0.018133622 0.023081016 0.002347201
-0.03565162 -0.018957352 0.003789286 -0.01274016 0.01924039 0.022509268 -0.039420467 -0.014048204
0.03971263 0.036027968 -0.01749913 -0.009367834 -0.030018851 0.040414076 -0.033960223 -0.026318293
00000000: d83f f7bc a071 223d ca39 0d3d d66a d1ba
00000010: 1b47 d33c 96fd d7bb 06cc 1e3d 385f 22bd
00000020: ee6d c0bc 00a4 43bc 30cc 51bc 5ac8 17bd
00000030: 5069 cebc a316 233d 5630 3a3b e3b5 eabc
00000040: d6f1 01bb 805c f5bc aed8 c73c abd0 813a
00000050: 0aa8 0e3d 96bd e8bb 73ef b03c fb89 3bbc
00000060: 2b72 bebc e03d 1d3d 43de 9cbc 4022 103b
00000070: a668 edbc d62c 973a abd4 fe39 93e7 0bbd
00000080: f35d cf3c ba80 203d 9644 ba3c ab89 42ba
00000090: ab96 423a 0003 ed3c 93ec 963c d87c 173d
000000a0: 8730 19bd d6ff c4bb 70d9 993c 3675 233d
000000b0: 5067 d43c ec7b 22bd 9b0d 20bc 60a5 67bc
000000c0: e80f cbbc ab68 8c39 7b34 9e3c 80d7 ff3a
000000d0: 6452 163d fe8b 043d 8e42 c43c 4064 cf3b
000000e0: 4755 13bd 686e a13c 9382 e73c 0b5a cfbb
000000f0: c25e 27bd 465c ddbc 3670 ce3c 7738 28bd
00000100: fb04 3ebc 2e6f f3bc 0bb0 b7bb 9379 bf3c
00000110: b396 ebbc eb77 733b 5358 0bbd 63dd 21bd
00000120: 3070 1bbd d07c cbbc 8451 20bd 4681 94bc
00000130: dbf7 913c a6e7 d4bc 8be3 893c d394 bb3c
00000140: 3b12 f7bc c8fe 0cbd 9aa6 08bd 1bf7 ebbc
00000150: 2ba7 1e3b 16cb 77bc ebd0 b93b fbc3 f93c
00000160: 6b14 bc3c efac 193d 0ef5 a7bc 203e 243d
00000170: 064e 16bd 8bb1 7bbc 525a 1ebd 6b9e a33b
00000180: eba7 7b3b 9cac 19bd 16c6 1a3d 20e3 bcbb
00000190: c3ed fc3c 6881 8c3c 8b09 06bd 6bb8 b7bb
000001a0: e09f 4c3c 2b6b ed3b 267f fdbc 906e cfbc
000001b0: fcd3 283d f68c 943c 6614 bd3c 80d3 193b
000001c0: 6f07 12bd 734c 9bbc ab55 783b 1bbc 50bc
000001d0: 069e 9d3c 5b65 b83c 5b77 21bd 702a 66bc
000001e0: b6a9 223d 1092 133d 565a 8fbc 8b7b 19bc
000001f0: 18ea f5bc 3b89 253d e019 0bbd 7699 d7bc

fc.weight f4 [10, 128]
0.024660436 -0.03432419 -0.010136886 0.0043354672 -0.058393247 0.020954106 -0.08830806 -0.0506697
-0.05613213 0.013944759 0.02335026 0.031050393 0.04750644 0.04949391 0.067989156 -0.029686363
0.01734209 0.047431346 -0.0053321137 -0.029793523 0.0055243876 -0.045735948 0.062205546 -0.059085127
-0.084805906 0.045391176 -0.010444136 -0.07049044 -0.039711952 -0.08567132 -0.022363992 -0.06911366
0.0019487543 0.060267683 -0.08342611 -0.05630016 0.070144914 -0.029016009 0.06761873 0.01327513
0.07952715 0.017426152 -0.07827303 -0.024584867 -0.072834946 0.065387346 0.037815984 -0.0036944556
0.07377212 0.061589494 -0.06382589 0.08286264 -0.032124434 0.03880496 -0.03481477 0.0101994425
0.08255791 -0.06644951 -0.009276563 -0.084180444 -0.017561601 -0.03438739 0.022087952 -0.037403114
0.029529072 -0.06657413 -0.0339865 -0.034497723 0.007392199 0.086409986 0.041149 -0.023427315
-0.02885799 0.013577027 0.007011339 0.07588161 0.07845678 0.01677004 -0.034704357 0.038387053
-0.0020519826 0.002991425 -0.06379191 0.04020801 0.07638903 -0.05773782 -0.013273191 -0.009957604
-0.010392053 0.06807841 0.02810512 -0.037377913 0.083353266 0.074820906 -0.02780419 -0.062529825
-0.07984473 -0.08041454 -0.07650982 0.08760064 0.017497612 -0.043573223 -0.031635813 0.0017399272
-0.0005974421 -0.05112401 -0.023590254 -0.07434621 0.031610243 -0.052447546 0.057561245 -0.011483541
-0.061055545 -0.0059768236 0.08189487 0.087168954 -0.04140228 0.058865324 0.013091496 -0.081056185
0.058024757 0.07812467 -0.020950386 -0.034379836 -0.066875175 0.0144218085 0.029119669 0.074440904
0.010575529 0.059062622 -0.05377095 0.0876628 0.044727974 -0.05512301 0.013807392 -0.07270312
-0.035184 -0.06097902 -0.07531706 0.018177504 -0.008950873 -0.08538018 0.03498615 -0.08812457
0.008574723 0.055489972 0.00600934 0.018501403 -0.060302656 0.07726663 -0.02543849 0.014870504
-0.085194334 -0.018028336 -0.024236767 -0.028634526 0.031203019 0.026764713 -0.034244165 0.057402976
-0.0016393859 -0.017023196 0.042047624 -0.08565767 -0.0640457 -0.01981398 0.038764585 0.04153224
-0.052838977 -0.06780433 -0.046248704 0.07024625 0.0819218 0.0015526898 0.056950454 0.046214387
0.018120637 0.021879293 0.009953979 -0.029378219 -0.049775332 -0.01280025 0.061694924 0.010737247
0.08428883 -0.052686658 0.08487212 -0.07547589 0.022194045 -0.01808142 0.058760893 0.02256735
-0.06745854 0.075096115 0.01783074 0.055818085 0.008437546 -0.058170997 0.017544342 0.018965406
-0.034280274 -0.07145622 0.073940225 -0.075291865 0.064270794 -0.0006267763 0.05659544 -0.020594077
0.08217194 0.04563486 -0.006329129 0.08751748 -0.07972268 0.08435652 -0.067864984 0.015915124
0.058826335 -0.015604765 -0.028834155 -0.014893 -0.068050735 -0.001481114 -0.02340168 -0.013041836
-0.06386656 0.031668033 -0.018063823 -0.002283864 0.027774898 -0.07167027 -0.015581774 0.010496493
0.0027517676 -0.046293434 -0.08506389 -0.01727435 0.011571733 0.036022436 0.002561854 0.043748334
0.06367998 0.059960887 0.049408443 0.052052844 0.03436694 0.00034360218 0.06479688 0.018408174
-0.0142498175 0.05660446 -0.015321085 -0.026654625 -0.025441008 -0.011032432 -0.027339954 0.0699483
00000000: af04 ca3c 8697 0cbd 2e15 26bc 8910 8e3b
00000010: c22d 6fbd f2a7 ab3c dbda b4bd 088b 4fbd
00000020: ceea 65bd 8f78 643c 0b49 bf3c 655d fe3c
00000030: 1d96 423d 20ba 4a3d e63d 8b3d d130 f3bc
00000040: 0011 8e3c 5f47 423d 03b9 aebb 8c11 f4bc
00000050: ec05 b53b 9e55 3bbd 3ecb 7e3d 3f03 72bd
00000060: b8ae adbd 19ec 393d e21d 2bbc 4b5d 90bd
00000070: 00a9 22bd 7274 afbd b134 b7bc 768b 8dbd
00000080: 586d ff3a 3fdb 763d 4fdb aabd ff9a 66bd
00000090: 23a8 8f3d fbb2 edbc b07b 8a3d ee7f 593c
000000a0: 21df a23d 4ac1 8e3c 9c4d a0bd 3466 c9bc
000000b0: 7d2a 95bd cde9 853d efe4 1a3d ae1e 72bb
000000c0: d615 973d 4445 7c3d 26b7 82bd e3b3 a93d
000000d0: e994 03bd f3f1 1e3d ef99 0ebd 901b 273c
000000e0: 1f14 a93d ae16 88bd bafc 17bc cc66 acbd
000000f0: 59dd 8fbc cbd9 0cbd cbf1 b43c 0234 19bd
00000100: f4e6 f13c 0458 88bd 6e35 0bbd 7c4d 0dbd
00000110: 423a f23b b8f7 b03d db8b 283d a4ea bfbc
00000120: 9767 ecbc 2e72 5e3c 60bf e53b d167 9b3d
00000130: f3ad a03d 5361 893c 2826 0ebd be3b 1d3d
00000140: 8e7a 06bb c90b 443b 55a5 82bd 27b1 243d
00000150: da71 9c3d 7e7e 6cbd cc77 59bc 3825 23bc
00000160: 6e43 2abc b26c 8b3d b53c e63c 9519 19bd
00000170: 1eb5 aa3d b43b 993d 9dc5 e3bc a30f 80bd
00000180: a285 a3bd 61b0 a4bd 2eb1 9cbd f767 b33d
00000190: 2757 8f3c d679 32bd 8e94 01bd 450e e43a
000001a0: a99d 1cba 6967 51bd 5940 c1bc d342 98bd
000001b0: be79 013d 3dd3 56bd 57c5 6b3d 7625 3cbc
000001c0: 6115 7abd 3bd9 c3bb 7fb8 a73d a385 b23d
000001d0: 7095 29bd c41c 713d b77d 563c c900 a6bd
000001e0: 5eab 6d3d d4ff 9f3d 25a0 abbc dfd1 0cbd
000001f0: daf5 88bd 7349 6c3c 5f8c ee3c 7974 983d
00000200: fc44 2d3c a6eb 713d ed3e 5cbd 8e88 b33d
00000210: ae34 373d aac8 61bd 6638 623c 60e5 94bd
00000220: 191d 10bd 23c5 79bd d53f 9abd fde8 943c
00000230: afa6 12bc cedb aebd a34d 0f3d a87a b4bd
00000240: ff7c 0c3c 7449 633d ffe9 c43b 4190 973c
00000250: ebff 76bd f83d 9e3d 6164 d0bc 6aa3 733c
00000260: 5e7a aebd 29b0 93bc 2f8c c6bc f492 eabc
00000270: 799d ff3c ac41 db3c 9c43 0cbd 621f 6b3d
00000280: aae0 d6ba 3b74 8bbc 213a 2c3d 4a6d afbd
00000290: 642a 83bd ee50 a2bc 9dc7 1e3d b61d 2a3d
000002a0: af6d 58bd ffdc 8abd 486f 3dbd 44dd 8f3d
000002b0: 9ec6 a73d a083 cb3a e144 693d 4c4b 3d3d
000002c0: bb71 943c 343c b33c 0416 233c 97aa f0bc
000002d0: 38e1 4bbd 24b8 51bc d1b3 7c3d 47eb 2f3c
000002e0: 9f9f ac3d f7cd 57bd 6fd1 ad3d 1a93 9abd
000002f0: 49d0 b53c 7c1f 94bc 43af 703d 2adf b83c
00000300: b427 8abd fecb 993d c611 923c 81a1 643d
00000310: a23d 0a3c b644 6ebd 27b9 8f3c 575d 9b3c
00000320: 7969 0cbd a357 92bd f96d 973d 9f32 9abd
00000330: 68a0 833d 3f4e 24ba 9fd0 673d e9b4 a8bc
00000340: c349 a83d 9eeb 3a3d 9564 cfbb 5d3c b33d
00000350: a545 a3bd 1cc3 ac3d ccfc 8abd 6f60 823c
00000360: e2f3 703d 21ab 7fbc 9b35 ecbc c501 74bc
00000370: 2f5e 8bbd f021 c2ba e1b4 bfbc 6dad 55bc
00000380: 79cc 82bd 57b6 013d 95fa 93bc e1ac 15bb
00000390: 2f88 e33c ddc7 92bd b24a 7fbc 7cf9 2b3c
000003a0: 0057 343b 2f9e 3dbd fa35 aebd f082 8dbc
000003b0: 5e97 3d3c 438c 133d c7e4 273b 7431 333d
000003c0: a66a 823d 8c99 753d 8260 4a3d 5d35 553d
000003d0: 59c4 0c3d 8125 b439 3ab4 843d bdcc 963c
000003e0: 1178 69bc 14da 673d 4a05 7bbc cd5a dabc
000003f0: a969 d0bc 60c1 34bc 0af8 dfbc 0e41 8f3d

fc.bias f4 [10]
0.08122883 0.0030990578 0.026767494 0.046982557 -0.07091156 0.029565044 -0.04966198 -0.08113917
-0.048209175 -0.0071212263
00000000: 4d5b a63d 9019 4b3b 8147 db3c c870 403d
00000010: 143a 91bd 6432 f23c 5c6a 4bbd 4b2c a6bd
00000020: fc76 45bd 2d59 e9bb
